best_ga_model.pth (torch, 2560 bytes, 4 tensors)

fc1.weight f4 [10, 10]
0	0x3f0996b1	0.5374556
1	0x3e019970	0.12656188
2	0x3f38a568	0.7212739
3	0x3f20c03a	0.62793314
4	0x3f769bed	0.96331674
5	0xbeba103f	-0.3634052
6	0xbf495024	-0.7863791
7	0xbf8de832	-1.1086485
8	0xbf0beff3	-0.5466301
9	0xbe6e13f3	-0.23249798
10	0x3d4fcde6	0.05073347
11	0x3e58c125	0.21167429
12	0xbd8978ac	-0.067124695
13	0x3f611743	0.8792612
14	0xbc9d1b48	-0.019178048
15	0x3f1ec328	0.62016535
16	0xbe0aaaf9	-0.13541783
17	0x3ea180a7	0.31543466
18	0x3ea2deec	0.318107
19	0xbe951756	-0.29119366
20	0xbe9d9e50	-0.30784845
21	0xbf1e7e69	-0.61911637
22	0xbf1bfc5e	-0.60931957
23	0x3ec4810c	0.38379705
24	0x3f62534f	0.8840837
25	0x3f2ddb01	0.679123
26	0xbf1e322e	-0.6179532
27	0x3f46e05e	0.7768611
28	0xbef63907	-0.48090383
29	0xbf51698a	-0.81801665
30	0x3e84a915	0.2591025
31	0xbb45f2f0	-0.0030204616
32	0xbf3c6681	-0.7359391
33	0xbe957be1	-0.29196075
34	0x3f2631ca	0.6491972
35	0x3d6bb8b7	0.057549205
36	0x3f8b6b9f	1.0892218
37	0xbe186160	-0.14880896
38	0x3ee74755	0.4517161
39	0xbf237d5f	-0.63863176
40	0x3f7b3739	0.9813114
41	0xbd29eff0	-0.041488588
42	0xbf0fb08a	-0.5612875
43	0x3d66ddcc	0.056363866
44	0xbe2812ca	-0.16413417
45	0xbed07177	-0.40711567
46	0xbf501793	-0.8128597
47	0xbeb6dbec	-0.35714662
48	0x3dfc6ab2	0.12325038
49	0x3f7708ff	0.964981
50	0xbf470735	-0.7774537
51	0xbe5d7e68	-0.21630251
52	0xbf5bff66	-0.8593658
53	0x3e26fbf4	0.1630705
54	0xbf067c97	-0.5253386
55	0xbf4f8d4a	-0.81074965
56	0x3d830bea	0.06398757
57	0xbeb14217	-0.34620735
58	0x3f41e416	0.75738657
59	0x3eade2ce	0.339621
60	0xbf908c99	-1.1292907
61	0x3ebec048	0.37256074
62	0x3f2726e6	0.6529373
63	0xbf05fa57	-0.52335113
64	0x3d900aa2	0.07033278
65	0x3f7d2adb	0.9889352
66	0x3e379f45	0.1793185
67	0x3e27266d	0.16323252
68	0x3e1d96a2	0.15389493
69	0x3f131356	0.5745138
70	0xbeec0f5f	-0.46105477
71	0xbf845de5	-1.0341154
72	0x3ec639df	0.38716027
73	0xbef8745b	-0.48526272
74	0xbea354f8	-0.31900764
75	0xbec6ea79	-0.38850763
76	0xbf2e435d	-0.6807154
77	0x3eefddf4	0.46849024
78	0xbea61ade	-0.32442373
79	0x3f0b82c6	0.5449642
80	0xbe9f09b5	-0.31062093
81	0xbe30696e	-0.17227718
82	0xbe4f9f6d	-0.2027566
83	0x3f50eaf2	0.816085
84	0x3f355f1e	0.7084826
85	0xbf73cc92	-0.95234025
86	0x3f00adc9	0.50265175
87	0xbea8ead0	-0.32991648
88	0x3f4b2930	0.7935972
89	0xbeee1e25	-0.46507373
90	0xbe752630	-0.23940349
91	0x3f519df2	0.8188163
92	0x3e299a93	0.16562872
93	0x3f7d8814	0.99035764
94	0xbe72576e	-0.23666164
95	0xbdd6901d	-0.10476706
96	0x3ee03e73	0.43797645
97	0xbf447bb6	-0.7675127
98	0x3f335917	0.70057815
99	0x3e8dbd61	0.27683547

fc1.bias f4 [10]
0	0x4004a2fd	2.072448
1	0xbe24fa70	-0.1611116
2	0xbf8f2472	-1.1182997
3	0xbea9ba03	-0.33149728
4	0xbfe5d4f8	-1.7955618
5	0xbf2e57ea	-0.68102896
6	0x3e22dd5a	0.15904751
7	0xbf0602a9	-0.5234781
8	0x3e06f36d	0.13178797
9	0xbef7f9bf	-0.4843273

fc2.weight f4 [2, 10]
0	0x3f1e4b1d	0.61833364
1	0xbdbaaa32	-0.091144934
2	0x3e624053	0.2209485
3	0xbe3b6f35	-0.18304141
4	0x3e5e5ea4	0.2171579
5	0xbe48cd81	-0.19609644
6	0xbdd2378d	-0.10264502
7	0xbeb61749	-0.3556464
8	0xbe9c36bf	-0.30510518
9	0x3cb78ab8	0.022405013
10	0x3df979d1	0.12181438
11	0x3f7dca5f	0.9913692
12	0xbf2c6641	-0.6734353
13	0x3f5b66f8	0.8570399
14	0x3e947310	0.28994036
15	0xbf1e8686	-0.61924016
16	0xbe8a6aa6	-0.2703449
17	0x3e26212d	0.16223593
18	0xbec6382f	-0.3871474
19	0x3d9703b8	0.07373756

fc2.bias f4 [2]
0	0xbf5e33e1	-0.8679791
1	0xbe6f35b0	-0.23360324
