best_ga_model.pth (torch, 2560 bytes, 4 tensors)

fc1.weight f4 [10, 10]
00000000: 4034 49bf 57fc 743f 79af d1bd 4ace 933e
00000010: eb90 833d 8682 5abe 1424 67be 3656 cdbd
00000020: 9314 f0be b4e7 5bbd 95f6 593f 11c2 fbbd
00000030: ba0d 8d3e d92d 0f3f e7d1 92bd c9d1 df3d
00000040: c3af e1be 410c 33bf b41f 243d f84c e83e
00000050: d9a8 493f 93b0 f53d 940a 9ebf d249 be3e
00000060: 5e1c b3be 8082 85bd 2043 8a3f 8aca 49bf
00000070: b37b 0e3f 04ee 74bd d2ba f13e 527a 3cbf
00000080: b63d 48bf 9149 19bf 139d 1abf 2654 2dbf
00000090: 2cf8 9e3e 7c0b 7a3f 2008 0c3f 2095 473f
000000a0: 907b 273f 4048 16bd 4a0e 9b3f 8c4a d2be
000000b0: 0260 06bf 0032 05bf 671c e53e 905d 52bf
000000c0: 00ad 553d 53ee acbe 0cd4 a53e 3afc 6f3d
000000d0: d802 bc3e ac42 5f3f 8d64 67bf 7915 813f
000000e0: c5d1 8d3e 9823 e03e a35c 653e 05ed 253f
000000f0: c0f9 b4be e2a4 2a3e 0a2d 42bc 0abd 10bf
00000100: 9cbd 93bf e32f 8ebe 1943 22bd e571 9f3e
00000110: 6a9c e23d 12dd 8fbf 481f b6bb e8b0 a43e
00000120: 030c cdbe d431 823f 25ce 443f 0503 9dbe
00000130: d7cd 02be b620 c4be 8eea 60bf dcee efbd
00000140: 63ae 63be 9448 cabe 2245 aabe 1647 0d3f
00000150: dcf4 c9bc a080 14bb 2dc9 dabe 26da b6be
00000160: 075b 543e a42a ccbe 303c 18be f805 3e3f
00000170: 6098 893d 0395 973e 48c9 543f f010 05bf
00000180: d896 783f 26e2 1ebf 22c4 0a3f 26dd 383f
-0.7859535 0.9569754 -0.10238547 0.28868324 0.06424125 -0.21338853 -0.22572356 -0.10026209
-0.46890697 -0.053687766 0.8514188 -0.122928746 0.27549535 0.5592933 -0.07168942 0.10928685
-0.44079408 -0.6994057 0.040069297 0.45371222 0.78773266 0.119965695 -1.2346978 0.37165695
-0.3498258 -0.065190315 1.0801735 -0.78824675 0.556575 -0.059797302 0.47212845 -0.73624146
-0.78219163 -0.5987788 -0.60395926 -0.67706525 0.31048715 0.97673774 0.546999 0.7796192
0.65422916 -0.036689997 1.2113736 -0.410725 -0.52490246 -0.5202942 0.44748232 -0.82174015
0.05216694 -0.33775577 0.3238834 0.05859015 0.3672092 0.8721111 -0.90387803 1.0084678
0.27699104 0.43777156 0.2239862 0.6481479 -0.35346794 0.1666446 -0.011851558 -0.5653845
-1.1542239 -0.2777091 -0.03961477 0.31141582 0.1106499 -1.123934 -0.0055579282 0.3216622
-0.40048227 1.0171456 0.7687705 -0.30666366 -0.12773834 -0.38306206 -0.878579 -0.11715481
-0.22234492 -0.39508498 -0.3325587 0.55186594 -0.02465289 -0.0022659674 -0.4273161 -0.3571331
0.20737849 -0.39876282 -0.1486671 0.7422786 0.06718516 0.29605874 0.8311963 -0.5197897
0.9710517 -0.62063825 0.54205525 0.72212446

fc1.bias f4 [10]
00000000: cb3b 14be f395 1bbf 72c1 083f 8f51 75bf
00000010: 2b62 30bf 9825 f9be 92d3 1fbf b3a5 97be
00000020: f1a7 9abe 153d 2e3e
-0.14475934 -0.6077568 0.53420174 -0.95827574 -0.6889979 -0.48661494 -0.62432206 -0.29618606
-0.30206254 0.17015488

fc2.weight f4 [2, 10]
00000000: d0af 21bf 2068 783d 4051 32bd a09c 983e
00000010: d3b3 f2be 725d 58be 5822 5cbc 3c7c 143f
00000020: 0de2 5dbd 9ae2 b03e a406 5abf 9b2b 59be
00000030: bef5 ef3e c63e ce3d 0076 49bb c02c 8bbd
00000040: 80ad d83c 747a b1be 0011 12bc 8092 783d
-0.63158894 0.060646176 -0.043534517 0.29806995 -0.4740282 -0.21129397 -0.013435923 0.58002067
-0.054170657 0.34547883 -0.8516638 -0.2120804 0.46867174 0.10070567 -0.00307405 -0.06795645
0.026449919 -0.34663737 -0.008915186 0.06068659

fc2.bias f4 [2]
00000000: f2a5 8abc 46c7 193e
-0.016924832 0.15017423
