models/best_ga_model.pth (torch, 2368 bytes, 4 tensors)

fc1.weight f4 [3, 24]
000000 92 80 11 3e 24 db 2f 3e 6c 21 8a 3e 45 fc 20 bf
       0.14209202 0.1717344 0.26978624 -0.6288493
000010 10 6c 1b 3d 8b 99 71 bf 0e 15 ba be ac 88 25 bc
       0.037944853 -0.9437491 -0.36344188 -0.010103386
000020 b2 b6 f6 3e bf 1a fa 3d 14 58 47 bd b8 79 8b 3e
       0.4818626 0.12212133 -0.048667982 0.27241302
000030 bc 37 35 3f 82 e2 5b 3f 73 26 11 bf 98 60 cb 3e
       0.7078817 0.858925 -0.56699294 0.39722133
000040 6f 47 32 bf 24 08 e5 3e 8b a1 bf be e4 60 92 be
       -0.6964025 0.44732773 -0.37427935 -0.28589547
000050 22 b9 97 be c2 ad 2b bf 9e b6 52 3f 86 ce 1f 3f
       -0.29633433 -0.6706201 0.823099 0.62424505
000060 07 97 29 3e 7e f0 61 be 57 e8 e5 bd 44 8c ba 3d
       0.16561519 -0.22064397 -0.11225956 0.09108785
000070 0b 66 61 bf 59 0f 8f 3e 88 e9 7f 3e c8 85 fa bd
       -0.8804633 0.27941397 0.24991429 -0.12232548
000080 1a ce ff 3e 67 da 91 be f4 f8 6c 3e 23 ec a0 3e
       0.4996193 -0.2848694 0.23141843 0.31430158
000090 1b 9d ca 3d 38 f0 59 3f ec 89 3a bf 2a 1f 23 be
       0.09893247 0.8513217 -0.728667 -0.15929857
0000a0 62 a9 a5 be fd 66 cb 3f 81 d3 49 3f 36 2e 0e bf
       -0.3235579 1.5890805 0.78838354 -0.5553926
0000b0 78 71 8e be ed c9 c7 3e d4 db 74 bd 6e 77 29 3d
       -0.27820945 0.39021245 -0.059779957 0.041373663
0000c0 02 f4 25 be b8 62 2d 3f 00 e8 70 bf d3 ab 70 3e
       -0.16206363 0.6772876 -0.94104004 0.23503046
0000d0 5a 3d de 3e 42 fa 48 3f 81 1d e4 be ab cc 8a be
       0.43406183 0.78506863 -0.4455376 -0.27109274
0000e0 43 05 1d 3e d8 ea 35 bf 20 c8 2c bf b1 60 7c 3e
       0.15334038 -0.7106147 -0.67492867 0.2464626
0000f0 80 a6 64 3d 4a 22 28 3f 5b b5 01 3e 08 58 6b 3f
       0.05582285 0.6567732 0.12666838 0.919312
000100 57 1a 31 3f 77 d1 e0 be e4 d4 9c 3e 88 2a fc 3e
       0.69180816 -0.4390981 0.30631173 0.492512
000110 ea 01 a8 be dc cd 8e be 62 7d 23 3f a4 89 be bd
       -0.3281396 -0.27891433 0.63863194 -0.093035966

fc1.bias f4 [3]
000000 d3 ba a0 bf 51 eb 04 40 09 35 c9 3f
       -1.2557014 2.0768626 1.571931

fc2.weight f4 [2, 3]
000000 9b 0b b5 be 80 a8 39 3a 73 eb 13 3f 8b a7 56 3e
       -0.35360417 0.00070822984 0.5778114 0.2096235
000010 5d 2e 32 3f 45 73 76 3d
       0.69601995 0.060168523

fc2.bias f4 [2]
000000 ae 9f 84 bf 4f 18 d1 bf
       -1.036123 -1.6335543
