models/best_ga_model.pth (torch, 2368 bytes, 4 tensors)

fc1.weight f4 [3, 24]
-0.8784958 -0.8131946 0.059205428 0.20739989 0.8343431 0.45771146 0.25268316 -0.3086505
-0.29529 -0.56108576 0.41984114 -0.45827255 0.85937935 -0.3708106 0.20232253 0.15754296
-0.7575833 -0.16128479 -0.56815827 0.52375835 0.05940202 -1.1506636 -0.17820959 -0.35171834
0.27308878 -0.41309622 0.119324565 -0.51407135 0.20454495 0.15129615 -0.64871377 0.04187809
-0.17532586 -0.020656496 0.093340084 0.92824817 -0.62174493 -0.31384358 0.55622077 -0.59199584
0.44723397 -1.1420461 0.5236986 0.397119 -0.30473772 -0.40772873 0.70953524 0.9415396
0.51319754 -1.015256 1.0200508 0.27985084 0.912032 0.24388976 0.30114383 -0.69673556
0.16649628 -0.16616444 -0.15645425 0.37086684 -0.9479666 -0.12938441 -0.15721269 -0.2074136
-0.5477187 0.5412981 -0.49479976 -0.16231197 1.3941553 -0.56082 -0.6715536 0.84411293
00000000: 1ae5 60bf 852d 50bf 6481 723d a360 543e
00000010: 8297 553f 2859 ea3e b05f 813e 7007 9ebe
00000020: 4030 97be 51a3 0fbf 6bf5 d63e b3a2 eabe
00000030: 4900 5c3f e3da bdbe a32d 4f3e f152 213e
00000040: fbf0 41bf d727 25be d272 11bf 0715 063f
00000050: 884f 733d f248 93bf 937c 36be 6d14 b4be
00000060: 4bd2 8b3e 5981 d3be 7060 f43d 2e9a 03bf
00000070: 3b74 513e 61ed 1a3e 1b12 26bf 5c88 2b3d
00000080: 9f88 33be d037 a9bc 1629 bf3d aca1 6d3f
00000090: ad2a 1fbf 1bb0 a0be 7c64 0e3f 0a8d 17bf
000000a0: dafb e43e 912e 92bf 1d11 063f 2e53 cb3e
000000b0: 9506 9cbe d2c1 d0be 1aa4 353f bd08 713f
000000c0: ea60 033f e9f3 81bf 0691 823f 9c48 8f3e
000000d0: ee7a 693f 3dbe 793e 862f 9a3e 435d 32bf
000000e0: 007e 2a3e 0327 2abe 8b35 20be 42e2 bd3e
000000f0: f0ad 72bf 597d 04be 5dfc 20be 3b64 54be
00000100: 4b37 0cbf 8392 0a3f 6556 fdbe 1c35 26be
00000110: ae73 b23f e691 0fbf f0ea 2bbf c917 583f

fc1.bias f4 [3]
2.1305814 1.5149956 1.8740487
00000000: 725b 0840 60eb c13f d4e0 ef3f

fc2.weight f4 [2, 3]
-0.32139862 0.3739198 -0.07591524 -0.2323103 0.018302716 0.63952744
00000000: 5c8e a4be 6b72 bf3e 7379 9bbd c0e2 6dbe
00000010: 94ef 953c 12b8 233f

fc2.bias f4 [2]
0.20811641 -0.731665
00000000: 781c 553e 664e 3bbf
