models/best_ga_model.pth (torch, 2688 bytes, 8 tensors)

fc1.weight f4 [3, 16]
000000 e3 d8 b7 3e 06 d7 4f be dc 4a 23 be 1c 74 49 be
       0.3590766 -0.20296869 -0.15946525 -0.19673198
000010 44 3c 99 3e ef 4d d7 3e 0b 41 32 3f 38 98 0f 3f
       0.29928792 0.42051646 0.696305 0.5609164
000020 a6 a1 b7 3f dd 6e a5 bf cf 05 9f 3e e2 6e 5c bf
       1.4346206 -1.2924458 0.3105912 -0.86106694
000030 35 a6 f2 3f bf 03 ea be 90 71 e1 be 28 d6 28 3f
       1.8956972 -0.45705983 -0.44031954 0.65951777
000040 ed 19 4e 3f 52 b1 af 3e 8c 57 b3 bf a8 38 7a 3c
       0.8050831 0.34314972 -1.4011092 0.015272297
000050 7c 93 41 bf f9 41 63 be 0e ff 95 3f cd 0a 5e bf
       -0.7561567 -0.22193135 1.1718462 -0.8673523
000060 18 d4 c3 bf 73 32 58 bf 94 54 a2 3f c5 4a 8c 3f
       -1.5299101 -0.8445198 1.2682061 1.0960318
000070 85 12 3e bf 40 8c 29 bd 03 37 09 bf ba 68 46 be
       -0.7424701 -0.04139352 -0.53599566 -0.19375888
000080 b4 b1 e3 3e 90 fd 5c 3d 6e b6 d5 be 4a 1f 6f be
       0.44471514 0.053952754 -0.41740745 -0.2335178
000090 79 c2 b0 bf 7a 26 00 bf 6d ce 13 3f cd 0c d3 3e
       -1.3809348 -0.5005871 0.57736856 0.41220704
0000a0 dd ee c6 3d 4a 29 06 3f 5d 60 c0 3d b0 5f 11 bf
       0.09713528 0.5240675 0.0939338 -0.5678663
0000b0 80 14 d3 bd 34 3c d8 3c 0e 60 e0 bf c4 d6 5d 3f
       -0.103066444 0.026395895 -1.7529314 0.8665583

fc1.bias f4 [3]
000000 bd 7b 74 bf 1f 53 40 be 85 a2 4f 40
       -0.9550131 -0.18781708 3.2442944

fc2.weight f4 [2, 3]
000000 dc ac 08 be 55 37 2a bf 9c c3 13 3f 5e 46 90 3e
       -0.1334719 -0.6649068 0.5772035 0.28178686
000010 1a e0 fc be 24 01 34 bc
       -0.49389726 -0.0109866

fc2.bias f4 [2]
000000 21 54 8e bf aa 4a b1 3d
       -1.1119424 0.08656819

network.0.weight f4 [3, 16]
000000 e3 d8 b7 3e 06 d7 4f be dc 4a 23 be 1c 74 49 be
       0.3590766 -0.20296869 -0.15946525 -0.19673198
000010 44 3c 99 3e ef 4d d7 3e 0b 41 32 3f 38 98 0f 3f
       0.29928792 0.42051646 0.696305 0.5609164
000020 a6 a1 b7 3f dd 6e a5 bf cf 05 9f 3e e2 6e 5c bf
       1.4346206 -1.2924458 0.3105912 -0.86106694
000030 35 a6 f2 3f bf 03 ea be 90 71 e1 be 28 d6 28 3f
       1.8956972 -0.45705983 -0.44031954 0.65951777
000040 ed 19 4e 3f 52 b1 af 3e 8c 57 b3 bf a8 38 7a 3c
       0.8050831 0.34314972 -1.4011092 0.015272297
000050 7c 93 41 bf f9 41 63 be 0e ff 95 3f cd 0a 5e bf
       -0.7561567 -0.22193135 1.1718462 -0.8673523
000060 18 d4 c3 bf 73 32 58 bf 94 54 a2 3f c5 4a 8c 3f
       -1.5299101 -0.8445198 1.2682061 1.0960318
000070 85 12 3e bf 40 8c 29 bd 03 37 09 bf ba 68 46 be
       -0.7424701 -0.04139352 -0.53599566 -0.19375888
000080 b4 b1 e3 3e 90 fd 5c 3d 6e b6 d5 be 4a 1f 6f be
       0.44471514 0.053952754 -0.41740745 -0.2335178
000090 79 c2 b0 bf 7a 26 00 bf 6d ce 13 3f cd 0c d3 3e
       -1.3809348 -0.5005871 0.57736856 0.41220704
0000a0 dd ee c6 3d 4a 29 06 3f 5d 60 c0 3d b0 5f 11 bf
       0.09713528 0.5240675 0.0939338 -0.5678663
0000b0 80 14 d3 bd 34 3c d8 3c 0e 60 e0 bf c4 d6 5d 3f
       -0.103066444 0.026395895 -1.7529314 0.8665583

network.0.bias f4 [3]
000000 bd 7b 74 bf 1f 53 40 be 85 a2 4f 40
       -0.9550131 -0.18781708 3.2442944

network.2.weight f4 [2, 3]
000000 dc ac 08 be 55 37 2a bf 9c c3 13 3f 5e 46 90 3e
       -0.1334719 -0.6649068 0.5772035 0.28178686
000010 1a e0 fc be 24 01 34 bc
       -0.49389726 -0.0109866

network.2.bias f4 [2]
000000 21 54 8e bf aa 4a b1 3d
       -1.1119424 0.08656819
