models/best_ga_model.pth (torch, 2368 bytes, 4 tensors)

fc1.weight f4 [3, 24]
00000000: 94e7 a6be edfc 9dbe 08ac 563f e91c 83be
00000010: 0a42 99bb 3fe3 ac3e 49a7 583e ea89 ea3d
00000020: 6c42 3c3f 90d4 1fbe b6b9 8abe 05f4 cfbe
00000030: adad a63e c49c 663f 4195 f1be 8c9d 3d3f
00000040: a0d7 00bf eedf 3dbf 3f46 57bf ae88 0f3f
00000050: 1a7d 47bf e9b5 02bd 394d b33d 1842 143f
00000060: 06fa c4be 308f 9fbe f889 853f 27b7 23bf
00000070: a2fd c83e 5225 4dbf 801b 6b3e 11a7 143f
00000080: 808c 3cbf 2e37 173e 6257 5cbd 32ce bbbd
00000090: f80f 493e 0c07 2b3f 0a19 c7be a00e 9e3c
000000a0: 4211 1cbf 3a8f 8c3f e079 e83c d56e 373e
000000b0: 1fb9 163f 6cb5 973f 6442 4d3e 4c9b 38bf
000000c0: b8dc 803e ca57 173f 8c37 35bf 4835 053e
000000d0: 268d 5bbf a559 453f c4a6 4e3d a1b8 573f
000000e0: 7db7 d13e 826e d73e 3f78 f1be 44f7 383d
000000f0: 7412 55bf 0943 303f d9f4 a6bf f59f d9bd
00000100: 603b e03c 4a4b a1bf 5bb9 0dbf cb22 37bf
00000110: d4ce 47bf 7929 82be 7bdc 3a3f 6a6c a9be
-0.32598555 -0.3085703 0.8385625 -0.25607994 -0.004677062 0.33767125 0.21157564 0.11452086
0.7353885 -0.1560843 -0.2709481 -0.4061586 0.3255438 0.90082955 -0.47184184 0.7406852
-0.5032902 -0.74169815 -0.8409156 0.5606793 -0.77925265 -0.031911764 0.087549634 0.5791335
-0.38472003 -0.3116393 1.043273 -0.63951343 0.39256006 -0.8013507 0.22959709 0.58067423
-0.73651886 0.14767143 -0.053794272 -0.09170188 0.19634998 0.6680763 -0.3888629 0.019294083
-0.60963833 1.0981209 0.028378427 0.17913373 0.5887622 1.185224 0.20044857 -0.72111964
0.25168395 0.5911833 -0.7078788 0.13008606 -0.8576225 0.7708991 0.05045201 0.84266096
0.40960303 0.42076498 -0.47162053 0.045157686 -0.8323128 0.6885229 -1.3043472 -0.106262125
0.027372062 -1.2601101 -0.55360955 -0.71537465 -0.7804997 -0.25422266 0.72992676 -0.33090526

fc1.bias f4 [3]
00000000: 3096 6a40 1af5 c3bd d11f e63f
3.6654167 -0.09568234 1.797846

fc2.weight f4 [2, 3]
00000000: c2e9 adbe 045b a0be 4679 3fbe eaa3 253c
00000010: a262 cc3e f55c c8be
-0.33967406 -0.3131944 -0.18698606 0.010109881 0.39919 -0.3913342

fc2.bias f4 [2]
00000000: 15d9 f93f 308d ab3e
1.9519373 0.33506155
