models/best_ga_model.pth (torch, 2368 bytes, 4 tensors)

fc1.weight f4 [3, 24]
-0.9141517 0.07129039 -0.5108006 -0.24650472 -0.66991293 -0.6302625 0.3840767 -0.080984175
-0.13176703 -0.5125277 0.48706976 0.59706366 1.0188162 -0.13477604 0.20939521 -0.689893
0.04573711 -1.1833664 0.89780617 0.425267 -0.9284285 0.18118753 0.14271557 -0.6677499
-0.57856137 -0.8349056 -0.38032746 0.010915741 1.0201982 -0.19508296 -0.59099406 0.78297365
-0.11417523 0.79694206 1.1139678 -0.5868366 -0.39702222 0.10167075 -0.9369022 -0.5123841
-1.6575574 -0.53583217 -0.25546038 0.4230385 -0.90696007 -0.5330902 0.65934443 0.6360879
0.590684 -0.27018183 -0.6463233 0.74255013 0.38691115 0.72315097 -0.42701837 0.9239602
0.9701624 -1.8720607 0.9730643 -0.66184664 -0.54530036 0.7556857 -0.47363052 -0.86260474
1.0975897 -0.62809956 0.4587909 -0.3361992 1.089407 0.7933026 -0.709724 -0.4432907
00000000: d905 6abf b200 923d d4c3 02bf bc6b 7cbe
00000010: 6a7f 2bbf e258 21bf b4a5 c43e 08db a5bd
00000020: f0ed 06be 0435 03bf 3561 f93e 2ad9 183f
00000030: 9268 823f bb02 0abe b36b 563e d49c 30bf
00000040: d656 3b3d 8d78 97bf a0d6 653f 99bc d93e
00000050: 7dad 6dbf 3989 393e 0824 123e a8f1 2abf
00000060: 991c 14bf 60bc 55bf 48ba c2be f0d7 323c
00000070: db95 823f d4c3 47be 634b 17bf f670 483f
00000080: b4d4 e9bd 6504 4c3f 7f96 8e3f ec3a 16bf
00000090: 7f46 cbbe c138 d03d d3d8 6fbf 9b2b 03bf
000000a0: d72a d4bf 4c2c 09bf b4cb 82be 8198 d83e
000000b0: 892e 68bf 9978 08bf ccca 283f a8d6 223f
000000c0: 1137 173f 4655 8abe 7275 25bf c417 3e3f
000000d0: 3819 c63e 6c20 393f 27a2 dabe a888 6c3f
000000e0: 905c 783f af9f efbf be1a 793f c86e 29bf
000000f0: ce98 0bbf 9e74 413f b37f f2be aad3 5cbf
00000100: d27d 8c3f 22cb 20bf a4e6 ea3e 4d22 acbe
00000110: b071 8b3f e115 4b3f 79b0 35bf 00f7 e2be

fc1.bias f4 [3]
2.3619924 2.255861 3.254963
00000000: e22a 1740 0760 1040 5051 5040

fc2.weight f4 [2, 3]
0.08147777 -0.2560802 0.22052895 -0.48242888 0.19423397 0.1833097
00000000: d1dd a63d f21c 83be 57d2 613e eb00 f7be
00000010: 45e5 463e 8ab5 3b3e

fc2.bias f4 [2]
-0.38589388 0.09603173
00000000: e293 c5be 49ac c43d
