models/best_ga_model.pth (torch, 17732 bytes, 6 tensors)

net.0.weight f4 [64, 24]
000000 18 43 e4 be 2c 8f c5 be f6 ae 49 3f 3e 67 67 bf
       -0.44582438 -0.38585794 0.78782594 -0.9039191
000010 f0 cd bd 3e ca 7a 36 bf ce 8f 2a 3f e0 67 8a be
       0.3707118 -0.7128111 0.6662568 -0.27032375
000020 f0 9d 21 be e2 eb 2a bf 70 e7 eb be 16 d5 03 3f
       -0.15782905 -0.6676618 -0.4607501 0.5149702
000030 f4 75 84 3e f8 10 b9 be 30 e1 6d 3e b4 34 1a 3f
       0.2587124 -0.3614576 0.23230433 0.6023667
000040 ae 67 4a 3f 38 02 71 3e 2c 98 98 be f0 5b 58 3e
       0.7906445 0.23536003 -0.29803598 0.21128821
000050 a4 bd bd be fc d4 75 3f 14 1f ab be 80 fe ae 3e
       -0.37058747 0.96028113 -0.33422148 0.34178543
000060 d4 75 91 be 20 ba 48 3f 80 b1 17 3d 28 b4 8f be
       -0.28410208 0.78409004 0.03703451 -0.28067136
000070 ec 07 98 3e be f5 47 bf 40 e2 05 3d 54 6e f4 be
       0.29693544 -0.7810935 0.032686472 -0.47740424
000080 30 45 15 bf b0 31 f0 bd 4e 46 00 3f 18 52 4e 3f
       -0.58308697 -0.11728227 0.50107276 0.80594015
000090 52 5b 41 3f d0 11 a2 bd 78 b0 01 bf d0 16 e5 3d
       0.7552997 -0.07913554 -0.50659895 0.11185992
0000a0 7a 0e 56 3f 90 31 b3 be f0 21 cf 3e 80 91 0b 3d
       0.8361584 -0.3499875 0.4045558 0.034074306
0000b0 e0 92 18 bd 2e 12 7a bf 60 e8 11 3f ac e5 7f 3f
       -0.037249446 -0.9768399 0.569952 0.99959826
0000c0 9a c4 5e 3f 30 51 d8 3e bc 03 a7 be b8 01 40 bf
       0.8701874 0.4224944 -0.32620037 -0.7500262
0000d0 50 a4 8f be 00 8b 36 3e 18 21 1c 3f 7a 01 3c 3f
       -0.28055048 0.17826462 0.60988 0.73439753
0000e0 ac 8e 2d 3f ce ae 15 bf 88 cd 44 3e 00 a0 a2 be
       0.67795825 -0.58469856 0.19219029 -0.31762695
0000f0 f0 d8 89 3d 5c 2a dd be 5e 15 0b 3f a0 17 19 3e
       0.06730831 -0.4319638 0.5432948 0.14950418
000100 e0 2b 51 bf 3a b4 3e bf 6c aa f6 3e 88 e6 09 3f
       -0.8170757 -0.74493754 0.48176897 0.5386739
000110 0a 28 66 bf d6 d1 04 3f c8 3d 9a be 30 5f ab bd
       -0.89904845 0.51882684 -0.3012526 -0.08367765
000120 08 4d 84 3e 6e 29 4e 3f a0 e5 24 be d0 11 82 3e
       0.2584002 0.80531967 -0.1610322 0.25404215
000130 60 f2 33 be cc 86 d7 be 7a 03 54 bf 44 a9 ba 3e
       -0.17572927 -0.4209503 -0.82817805 0.36457264
000140 cc cb e4 be f0 5c 04 3e a0 8c be bd 44 70 56 3f
       -0.44686735 0.12926078 -0.09304166 0.83765054
000150 00 f0 c7 ba 5c 8d b9 3e 80 10 21 bf a2 77 35 3f
       -0.0015254021 0.3624066 -0.629158 0.7088567
000160 50 4c 5e 3f 70 91 60 3f 94 66 84 3e 0c c9 19 3f
       0.86835194 0.8772192 0.2585951 0.600724
000170 3e 85 1a bf 1a f6 75 bf 06 7f 55 bf 90 90 12 3e
       -0.6035956 -0.96078646 -0.8339695 0.14312959
000180 80 4a 4e be a8 24 40 be 2e 39 04 3f 46 9a 6d bf
       -0.20145607 -0.18763983 0.5164975 -0.9281353
000190 66 ac 44 bf 20 16 7d 3d 84 d8 fa be e8 12 63 3e
       -0.7682556 0.06178868 -0.48993313 0.22175181
0001a0 18 26 16 3e ac 21 b3 3e 30 98 83 bd 00 70 7d bc
       0.14662969 0.34986627 -0.06425512 -0.015468597
0001b0 6c a2 a3 3e 5a 7a 04 3f 36 19 47 bf 84 de d9 3e
       0.31959856 0.51749194 -0.77772844 0.42552578
0001c0 38 4b 22 3f d6 9d 02 3f 00 36 5f bf ec 09 0a bf
       0.63396025 0.5102209 -0.8719177 -0.5392139
0001d0 30 34 78 3e 60 9d 89 3d 04 ad 56 bf 30 67 b8 3e
       0.24238658 0.0671947 -0.8385775 0.36016226
0001e0 f4 ac 81 be 0c d3 6a bf 48 6a 46 be f4 2d 2a bf
       -0.25327265 -0.9172828 -0.1937648 -0.6647637
0001f0 54 7c a7 be cc be 80 be 90 05 b3 3d 58 ab f3 be
       -0.32712042 -0.25145566 0.08741295 -0.47591662
000200 04 88 e6 be 86 af 1d bf f8 f6 78 3e 94 0b 1e bf
       -0.45025647 -0.6159595 0.24312961 -0.61736417
000210 e4 63 ba 3e a0 8b e7 bd 08 6f 31 be a2 9b 54 bf
       0.36404335 -0.11305928 -0.17327511 -0.83049977
000220 64 b0 03 bf 4a 54 4f 3f 98 91 3a 3e 48 87 f0 3e
       -0.51441026 0.8098799 0.18219602 0.4697821
000230 c8 b4 a6 be 24 53 5a 3f 3c 18 2c bf 38 92 e1 3e
       -0.325598 0.8528311 -0.6722448 0.4405687
000240 a4 00 80 3e 60 6e 54 3d 46 66 7e bf 18 0d 01 be
       0.2500049 0.051863074 -0.99374807 -0.12602651
000250 e0 80 d0 bd 80 03 ea be 20 8b bc 3e 20 56 57 be
       -0.10180831 -0.45705795 0.36824894 -0.21028948
000260 28 7b db be 88 2b f5 3e 18 b9 26 3e 0a e9 6e 3f
       -0.42867398 0.47884774 0.16281545 0.9332434
000270 30 cf d1 bd ee 33 2d bf 48 41 6d 3f 10 1f 08 3e
       -0.10244596 -0.67657363 0.92677736 0.132931
000280 a4 22 e9 be 20 20 4f 3d ac 9a 86 be 4a bf 5f 3f
       -0.4553424 0.050567746 -0.2628988 0.8740126
000290 28 88 18 3f 90 75 6d 3f 74 9c ee be d0 3c 14 3f
       0.5958276 0.9275751 -0.4660374 0.5790529
0002a0 58 51 bf 3e a0 a6 e6 bd 8c 31 6c bf 30 a9 b9 3d
       0.37366748 -0.1126225 -0.922631 0.09065473
0002b0 7c d7 84 be 70 ea 27 3e 34 21 13 3f 46 72 7f 3f
       -0.25945652 0.16398025 0.5747254 0.9978374
0002c0 90 da f6 3e f6 c8 29 bf 32 57 3a 3f 80 49 78 bc
       0.48213625 -0.6632227 0.727893 -0.0151542425
0002d0 2c 9c 94 3e 2c 21 c1 3e 70 b8 57 bf 04 46 88 3e
       0.290254 0.3772062 -0.84265804 0.26615918
0002e0 20 1d 5d 3e 9a ab 72 3f b2 43 32 3f c8 6f 4d 3f
       0.21593142 0.94793093 0.69634545 0.8024869
0002f0 a2 52 7f 3f d0 e7 4b 3e 82 ff 3b bf 68 c4 6a be
       0.9973546 0.19912648 -0.7343675 -0.22926486
000300 00 bd 9f bb 16 c5 23 3f 68 bf b1 3e 3c 7e 3d bf
       -0.0048748255 0.63972604 0.34716344 -0.74020743
000310 9c 9b 43 bf 2a 86 0a 3f b8 08 69 3f 9e 8f 05 3f
       -0.76409316 0.5411097 0.9102893 0.5217227
000320 74 73 c6 3e cc 76 c9 be d6 96 24 bf 08 39 12 bf
       0.3875996 -0.39348447 -0.6429266 -0.5711827
000330 00 b6 e8 3d 00 a7 1d 3d a0 c9 5c bf e0 1b 51 bf
       0.11362839 0.03848934 -0.86245155 -0.8168316
000340 a0 79 55 be f6 5d 16 bf 00 d6 4d 3e b0 e8 a4 3e
       -0.20847178 -0.58737123 0.20101166 0.32208776
000350 c0 90 cb bd 08 7f 33 be 28 8d b7 3e dc d6 56 bf
       -0.09939718 -0.17528927 0.3584988 -0.839216
000360 50 0d 98 3d 72 f2 13 3f 5c b7 08 3f 98 79 59 3e
       0.07424414 0.5779182 0.53404784 0.2123779
000370 b0 07 f7 3e 00 a7 6c 3d 02 5d 3c bf c8 5f d6 3e
       0.48248053 0.05777645 -0.7357942 0.4186995
000380 38 3c 69 be 00 fe dc bc 10 92 1e 3e 6c 79 f4 be
       -0.22776878 -0.026976585 0.15485406 -0.47748888
000390 82 13 68 3f c4 a8 a4 3e 70 33 b3 be c8 8e 77 bf
       0.90654767 0.32160008 -0.3500018 -0.9670224
0003a0 b0 01 99 bd c0 cc 50 3f 1c 04 9e be 00 0b 5b bd
       -0.07471025 0.81562424 -0.3086251 -0.053477287
0003b0 22 65 0d bf 44 84 c6 3e 68 ee 28 3e 68 2a 6b bf
       -0.5523244 0.38772786 0.16497195 -0.9186158
0003c0 74 74 d6 3e 80 0c 6a 3f 00 bd 2e bd 88 35 6d 3f
       0.41885722 0.91425323 -0.042660713 0.9265981
0003d0 be 85 68 3f b0 17 c0 be ea ea 6a bf 1e f9 2b bf
       0.90829074 -0.37518072 -0.917647 -0.67177
0003e0 90 23 99 bd e8 67 04 3f e0 fb 81 be f8 a5 2b be
       -0.07477486 0.5172105 -0.25387478 -0.16762531
0003f0 00 93 53 be 36 f1 74 3f 94 03 f6 be 00 fd 71 bd
       -0.20661545 0.9568056 -0.48049605 -0.05907917

net.0.bias f4 [64]
000000 b8 73 8d be 04 29 7b bf 30 a7 39 3f ea a7 2d bf
       -0.2762735 -0.9810946 0.7252073 -0.6783434
000010 6b ac 58 3e 48 5f cc be 9f 31 9f be e2 6f 16 c0
       0.21159522 -0.39916444 -0.31092545 -2.3505788
000020 e1 63 55 3f 8d 3b 6d bf 10 96 22 bf 5f ac e0 3e
       0.8335553 -0.9266899 -0.6351023 0.4388151
000030 14 e0 fc be da 69 10 bf 63 33 14 bf 55 7c aa 3e
       -0.49389708 -0.56411517 -0.5789091 0.33297983
000040 36 4b 5c bf b2 f6 a2 be 77 2c b8 be d2 d1 c8 be
       -0.8605226 -0.3182884 -0.35971424 -0.3922258
000050 d1 ec 0e bf 50 16 0b 3f 9b 98 68 bf 8d 69 90 bf
       -0.55830103 0.5433092 -0.9085786 -1.1282212
000060 12 eb 01 bf 58 d4 57 3f 85 e5 99 bf 3a d1 d9 3e
       -0.50749314 0.84308386 -1.2023169 0.4254244
000070 c6 d6 8e 3e 5d 74 1e 3f d6 e4 d3 bf 32 6b 18 3d
       0.27898234 0.61896306 -1.655421 0.037211604
000080 32 6c b4 3c 76 cc cd 3f ff b9 99 bf ad e3 38 c0
       0.022024248 1.6078022 -1.2009887 -2.8888962
000090 30 1d 92 3d 90 b5 30 bf 74 13 ae bf b5 8f 5a bf
       0.07134473 -0.6902704 -1.3599687 -0.8537553
0000a0 94 b0 3c 3f d0 53 ab 3f 64 6f 2e bf 81 5b 26 be
       0.73706937 1.3384953 -0.6813872 -0.16245843
0000b0 f8 d1 f5 3e 14 55 14 3d 44 d1 95 be f6 e8 ba be
       0.48011756 0.03621395 -0.2926122 -0.3650586
0000c0 d5 83 7b bf 81 b9 1c 3f f9 0f d6 bf 1c d5 99 be
       -0.98248035 0.61220556 -1.6723624 -0.30045402
0000d0 9e 92 d1 3e 04 02 32 be 81 51 cd bd f4 3d df 3e
       0.40932173 -0.17383581 -0.10025311 0.43601954
0000e0 1f ef 0f 3d 75 78 7b 3f 77 58 05 bf f2 ac 39 bf
       0.035140153 0.9823068 -0.5208811 -0.7252952
0000f0 a5 07 3f bf a0 a7 96 be d5 ab b8 bf 1a b9 12 3f
       -0.7462104 -0.29424763 -1.4427439 0.5731369

net.2.weight f4 [32, 64]
000000 57 65 4e bf 99 67 88 bc 0a 7d 47 be f8 f6 6b 3e
       -0.8062338 -0.016650962 -0.19481292 0.2304343
000010 1e 51 37 be d9 91 0b bf 7e ea 8c be c2 ce 8c be
       -0.17902038 -0.5451942 -0.27522653 -0.27501494
000020 00 2b 8d be b3 3b 7b bf 6e 93 98 bc 58 9f cf 3e
       -0.2757187 -0.9813797 -0.018624987 0.40551257
000030 e4 cd 2d bf 82 40 56 3f 80 e6 8c 3e 2b df 86 3f
       -0.6789229 0.8369218 0.27519608 1.0536855
000040 97 7b 78 be 69 49 e6 be 15 07 89 be 8f 9a 72 3f
       -0.24265896 -0.44977883 -0.26763216 0.9476709
000050 ba 1f 51 3f 86 16 f0 be 72 59 70 3f d5 c1 29 bf
       0.81689036 -0.46892184 0.9388648 -0.6631139
000060 27 6c 8f 3f 51 40 fe be 9f 4f 7f 3e 1a c4 01 3e
       1.120488 -0.49658445 0.24932717 0.12672463
000070 f1 28 08 3e a7 6b 67 bf 21 41 12 bf 3d db 22 3e
       0.13296868 -0.9039864 -0.5713063 0.15903945
000080 a4 12 c7 be 9e b8 d1 be 0d 12 a0 be 6c 6c 0d 3d
       -0.3888141 -0.40961164 -0.31263772 0.034527227
000090 51 1c 84 be a8 10 b3 bb 82 8b d1 be 0c 04 24 bf
       -0.25802854 -0.005464632 -0.4092675 -0.64068675
0000a0 5e 2a 69 bf 60 1c c0 3e b4 a3 47 bf 65 a6 51 3f
       -0.9108027 0.37521648 -0.77984166 0.8189452
0000b0 0b b3 82 bf 5f a4 c9 bd 34 93 aa 3e 45 5a 79 3f
       -1.021089 -0.098458044 0.33315432 0.97403365
0000c0 12 41 df 3e 80 cb 0d be 91 16 20 bf 9e a8 ee 3e
       0.43604332 -0.1384716 -0.62534434 0.4661302
0000d0 20 03 0b 3d ee 59 54 3f ca c1 24 3f b0 70 11 3e
       0.033938527 0.8294972 0.643582 0.14203143
0000e0 04 47 8f 3d 39 3a a0 be 0f d9 5b be f8 9e ce 3d
       0.06995967 -0.3129442 -0.2146952 0.10088915
0000f0 6e 0d 3f bf 74 24 3d bf 08 51 1f bf 5c e4 74 3f
       -0.7462987 -0.7388375 -0.6223302 0.9566095
000100 ed 87 09 bf 48 a6 70 bf 55 81 19 3d 88 63 27 3d
       -0.5372303 -0.94003725 0.037476856 0.040866405
000110 da 9e 73 3d bf 4e 05 3e 70 f7 9a bf 59 3a 41 3f
       0.059477665 0.1301832 -1.2106762 0.75479656
000120 bd e7 2a 3f da 46 d9 be 05 0d 7b 3f 24 9c 6f 3d
       0.66759855 -0.42436868 0.9806674 0.058498517
000130 ab 45 3b bf a8 64 8f bf 73 a1 f8 be a0 07 b3 3b
       -0.7315318 -1.1202593 -0.48560676 0.0054635555
000140 d8 36 a0 3f 2b c6 93 be 58 97 01 bf 98 cd a5 be
       1.2516737 -0.28862128 -0.5062156 -0.32383418
000150 d9 c9 82 3f 1e 12 1c bf 91 81 5e 3e 83 a5 0f 3f
       1.0217849 -0.60965145 0.21729113 0.56111926
000160 83 32 97 bd db 41 57 3f 90 18 d8 be f0 33 23 bf
       -0.07382681 0.8408486 -0.4220624 -0.63751125
000170 63 94 e3 be 40 2a bc 3e f5 0c d0 3d ee 42 d8 3d
       -0.44449148 0.36750984 0.10158721 0.10559641
000180 31 4a 42 3f 24 84 8e bf ee f6 30 bf c6 18 6b 3f
       0.7589446 -1.1134076 -0.69126785 0.91834676
000190 67 85 83 3e e8 5b 55 3f 89 a0 d5 be 7c dc b0 3d
       0.25687715 0.8334336 -0.4172404 0.08635804
0001a0 4e a3 d5 be e0 bc d2 be 01 19 3f bf 9e 76 ba bd
       -0.41726154 -0.41159725 -0.7464753 -0.09104656
0001b0 1c 06 1c bf 71 0c 30 bf ad 5d 66 3f 08 f3 0d 3c
       -0.6094682 -0.68768984 0.8998669 0.0086639
0001c0 67 37 5d bf 22 4b 35 3f b5 c3 5c 3f 03 a8 91 be
       -0.8641266 0.7081777 0.86236125 -0.28448495
0001d0 28 28 7e 3e 61 71 57 3f 8a 85 09 3f 47 86 1e bf
       0.24820006 0.8415738 0.5371939 -0.6192364
0001e0 91 3b d4 3e 24 5b 12 3e b1 06 31 bf d4 ff a0 3e
       0.41451696 0.1429258 -0.69150835 0.3144518
0001f0 77 99 06 3f 00 d0 48 bf 5c 88 7d bf a2 63 d1 3d
       0.5257792 -0.7844238 -0.9903619 0.102240816
000200 75 b0 30 3f 25 cb 51 bf e9 4c 16 3f 65 90 b6 be
       0.6901925 -0.819506 0.58711106 -0.3565704
000210 68 60 d6 bc 71 8e 07 3e aa 8a c2 be 1c fb ca 3e
       -0.026169017 0.13237931 -0.37996417 0.39644706
000220 90 fd 55 be 16 91 33 3f e0 ef e9 be 5b 3f d3 be
       -0.20897508 0.7014326 -0.45690823 -0.41259274
000230 41 55 e8 3e aa b6 32 bf 79 1f 79 bf ed 9f 89 3e
       0.45377544 -0.69809973 -0.9731365 0.26879826
000240 d5 ae 67 bf 15 7f 02 3f 78 5a 8b bf 19 7e d8 be
       -0.9050115 0.5097516 -1.0886984 -0.42283705
000250 24 db c1 be 6d 1b 1d 3f 12 7f 8a bf a2 c7 42 3f
       -0.37862504 0.61369973 -1.0820029 0.76085865
000260 5e 1a 85 3f 72 e5 ac 3e 5c 07 c2 3d aa df c1 3e
       1.0398672 0.33768803 0.0947406 0.37865955
000270 ce 50 2d bd 82 1d 56 bf cf ae f4 be 13 9a f1 be
       -0.04231339 -0.83638775 -0.47789618 -0.47187862
000280 e2 28 87 bf b5 17 d4 be 00 ce 85 bf 65 e2 f0 3e
       -1.0559351 -0.41424337 -1.0453491 0.47047725
000290 a2 06 1a 3f 0f 6c 94 3f 0a f3 45 bf c4 01 2d bf
       0.6016637 1.1595477 -0.77323973 -0.6758082
0002a0 36 7d 26 3f 45 f5 55 bd 42 bc 6e 3e 91 ae 6e 3e
       0.65034807 -0.05223586 0.23314002 0.2330878
0002b0 26 d6 52 bd 72 0b 7c bf 48 05 b1 bc ad 4f 32 bf
       -0.05147376 -0.98454964 -0.021608964 -0.69652826
0002c0 a5 e2 be 3e 12 56 1f 3f 85 e0 09 bf a5 07 12 bf
       0.3728229 0.6224071 -0.53858215 -0.57042915
0002d0 ee 85 73 bf c2 cf 97 3e 13 b7 14 3f 3c 47 be be
       -0.95126235 0.29650694 0.5809185 -0.37163723
0002e0 46 cb 80 bf c6 ae 1d 3f 56 50 62 bf 96 c3 ec 3e
       -1.0062034 0.6159481 -0.8840383 0.4624297
0002f0 ae 87 fc 3e e1 4e 8b 3e 78 40 b8 be 74 be 01 3f
       0.49322265 0.27208617 -0.35986686 0.50681233
000300 b7 ad 11 be 81 47 ad 3e 7e 4b 8f 3e ce 46 7e 3f
       -0.14226423 0.33843616 0.27987283 0.9932679
000310 29 43 5a bf 77 e3 53 bf 84 bb 8f 3e 48 65 83 3e
       -0.8525873 -0.8276896 0.2807275 0.2566321
000320 65 16 5a 3f dc 87 5a bf d4 95 2d bf ac c2 c9 bd
       0.8519042 -0.85363555 -0.67806745 -0.09851584
000330 39 81 4c 3f 10 0c 73 be 50 73 e9 be 15 cd 76 bd
       0.7988468 -0.2373507 -0.4559579 -0.060254175
000340 ae eb 41 bf c2 9c 10 3f 35 2a e6 be b0 7a 57 3f
       -0.75750244 0.56489193 -0.44954076 0.8417158
000350 e0 23 f8 3d 92 96 f7 be 02 35 56 3f fa fd 41 3f
       0.121162176 -0.48357064 0.83674634 0.7577816
000360 f8 d2 43 be 6b 7a ad be 9c 37 62 3f 1f 18 25 3f
       -0.19123447 -0.3388246 0.88366103 0.6448993
000370 33 0b 64 bf 91 56 90 3f d8 97 2c 3f f8 0d 41 3f
       -0.8907959 1.1276418 0.67419195 0.7541194
000380 12 17 e6 bd 76 61 91 be 9e 30 b7 be 05 ce e8 be
       -0.11234869 -0.2839467 -0.3577928 -0.4546968
000390 4e fb 30 3f c3 c4 25 3f f6 ec 37 3f 30 03 7f 3e
       0.6913346 0.6475336 0.7184595 0.2490356
0003a0 26 a9 f0 bd 0e 76 58 bf 39 36 83 3e 00 16 38 bf
       -0.117510125 -0.8455514 0.25627306 -0.7190857
0003b0 e9 a2 ca be c7 e2 12 bf 24 d3 bc 3b 27 ca ea be
       -0.39577416 -0.57377285 0.0057624746 -0.45857355
0003c0 51 e6 75 3e b9 ed 49 3e 80 50 91 3e 76 9e 75 3f
       0.2401364 0.1971959 0.2838173 0.9594492
0003d0 e5 1d 22 3e 3b f7 f7 3e 29 55 90 3e 7f 66 a0 3e
       0.15831716 0.4843081 0.28189972 0.31328198
0003e0 96 ef fb 3e 2f 8b 71 bf 66 1e 36 3f 3e a8 17 3d
       0.49206227 -0.94353 0.71140134 0.037025683
0003f0 2e 57 5d 3f a8 9c 26 bf 60 0b 5e 3f 4e 6b 16 bf
       0.8646115 -0.6508279 0.86736107 -0.58757484

net.2.bias f4 [32]
000000 60 3d 36 3d a4 86 83 bf a5 61 3c c0 5a 0e 5e 3e
       0.044492126 -1.0275464 -2.9434597 0.21685162
000010 f1 47 f6 bf c4 27 43 bf 98 e9 ca be 24 b3 9d bf
       -1.9240705 -0.7623255 -0.39631343 -1.2320294
000020 13 ae 35 c0 c5 72 a5 bf 33 fc 9c 3f 77 c6 83 bf
       -2.8387496 -1.292565 1.2264465 -1.0294942
000030 33 f4 f5 bf a4 50 0e c0 95 80 1d 3e 31 c4 0d be
       -1.9215149 -2.223672 0.15381081 -0.13844372
000040 fc 17 1a c0 ca 6d 82 c0 06 3b 29 bf b9 c7 4e c0
       -2.407714 -4.075902 -0.6610569 -3.23094
000050 ba 0e 6d 3e e8 5e 29 c0 2b 42 0b bf 30 3a d9 bf
       0.23150149 -2.6464176 -0.5439784 -1.6970882
000060 6c 16 22 be f4 23 ef be 86 8d 23 3e 9a e4 7c 3d
       -0.15828866 -0.46707118 0.15971956 0.06174145
000070 5e 00 d4 bf ee 00 c1 bf 47 51 13 c0 a6 8c d5 bf
       -1.6562612 -1.5078409 -2.3018358 -1.6683547

net.4.weight f4 [2, 32]
000000 00 1f 98 be 5b f7 dd be 6e ea 41 3f 78 ba 93 3c
       -0.2971115 -0.4335278 0.75748336 0.018033251
000010 22 63 ea 3e c4 b8 a4 be 40 d2 b0 3a f8 ec 80 bd
       0.45778757 -0.32172215 0.0013490394 -0.06295198
000020 c2 69 41 3f 6b b3 f6 3e 7d c4 bc 3e 12 c7 12 3e
       0.75552 0.4818376 0.3686866 0.14333752
000030 00 ba 4e 3f 3a 6b 2e 3f 4c 71 43 bf f0 64 37 bd
       0.80752563 0.68132365 -0.7634475 -0.044773996
000040 09 0e f2 be 53 e3 25 bf 45 3d e6 3e a4 a3 2f bf
       -0.47276333 -0.64799994 0.4496862 -0.6860907
000050 05 df 2e 3f 09 a9 13 bf 52 a2 36 be 2f 47 50 bf
       0.6830905 -0.576798 -0.17835358 -0.8135862
000060 44 64 bd 3e 43 b8 32 be a0 08 39 3f b9 e5 12 3f
       0.3699056 -0.17453103 0.72278786 0.5738178
000070 e6 54 83 3f 5b 96 00 3f 08 28 18 bf 76 0c bd 3e
       1.0260284 0.50229424 -0.5943608 0.3692357
000080 3c cf 6a 3d 4c 48 00 bf 7a ae eb bd f0 13 81 be
       0.05732654 -0.50110316 -0.11507888 -0.25210524
000090 b3 46 8a bf 0b 16 83 3e 93 b3 06 3f 82 05 2f 3f
       -1.0802826 0.25602755 0.5261776 0.6836778
0000a0 c5 f2 d6 be 3f 08 d5 be 1c 88 53 be b8 33 08 3f
       -0.41982093 -0.41607854 -0.2065739 0.53203917
0000b0 0f 45 9e 3e 50 a8 ad 3e 38 c7 60 3f 5b 56 26 3f
       0.30912063 0.33917475 0.87803984 0.6497552
0000c0 41 53 03 bf a7 2f f0 3e c5 61 b4 be 07 49 04 bf
       -0.5129891 0.46911356 -0.35230842 -0.5167393
0000d0 f8 fd 6f ba 6f 16 9f 3e 0d 64 00 bf a2 4a fd 3c
       -0.0009154971 0.31071803 -0.50152665 0.030919377
0000e0 0b 3c 14 bf b4 ac 95 3d e0 99 84 3c e5 bb 37 3f
       -0.5790412 0.07308331 0.016186655 0.7177108
0000f0 74 c5 56 3f 26 7a 3b be b9 13 7d be d6 fb 00 3f
       0.8389504 -0.18308315 -0.24714555 0.5038427

net.4.bias f4 [2]
000000 79 71 df be b9 d6 5e bf
       -0.4364126 -0.8704639
