models/best_ga_model.pth (torch, 2368 bytes, 4 tensors)

fc1.weight f4 [3, 24]
00000000: 6405 d73e 49f2 373e 963e b83e f1f3 0ebf
00000010: 38b9 06be e8ae 59bf 8656 69be de1d 7abd
00000020: 440f 0d3f 85ac b33d ac75 533d b879 8b3e
00000030: cecc 423f f8d9 673f 7d1b 94be f1e6 fb3d
00000040: 2ac8 2abf 5aad cf3e 762f abbe 1bd0 dbbe
00000050: 2fd9 c3be 4c2e 20bf 489e 493f c080 2f3f
00000060: 5464 783d cf13 74be 0041 f9bd 604b 743d
00000070: 088a 0ebf 3814 e93e 205e 933e 7c2f b0bd
00000080: 64a0 163f 67da 91be e60c 6b3e 8242 913e
00000090: 9dd0 d93e aa1d 643f ec89 3abf a718 20be
000000a0: 0090 f7bd 1e25 8f3f d421 7d3f d8e4 42bf
000000b0: 7871 8ebe be09 233f cc22 56be cbe1 203e
000000c0: 50a1 51be e02c f13e 00e8 70bf f81c c63e
000000d0: bcd8 a13e 4ff6 473f a7e1 08bf 64b1 88be
000000e0: bb22 7d3e d8ea 35bf c7e5 25bf 849c ca3e
000000f0: 80a6 643d 10f9 1e3f 264f a53d be65 613f
00000100: 1193 d93e 18df 20bf e4d4 9c3e 43e5 293f
00000110: c645 debe 22e3 79be 9550 3a3f f206 c93d
0.419963 0.17963518 0.3598525 -0.55840975 -0.13156593 -0.8503251 -0.22786912 -0.06106364
0.5510142 0.0877314 0.051625893 0.27241302 0.7609376 0.9056697 -0.28927222 0.12299908
-0.66711676 0.40561944 -0.33434647 -0.4293221 -0.38251635 -0.62570643 0.78757143 0.6855583
0.060642555 -0.23835681 -0.12170601 0.059642196 -0.5567937 0.45523238 0.2878275 -0.08602807
0.58838487 -0.2848694 0.22954139 0.28371054 0.42541972 0.89107764 -0.728667 -0.15634404
-0.12088013 1.1183202 0.9887974 -0.7613044 -0.27820945 0.6368674 -0.20911711 0.15711133
-0.20471692 0.4710455 -0.94104004 0.38693976 0.31610668 0.7811021 -0.5346932 -0.26697838
0.2472028 -0.7106147 -0.6480374 0.39572537 0.05582285 0.6209879 0.08071737 0.8804587
0.42495015 -0.62840414 0.30631173 0.6636545 -0.43412608 -0.2440305 0.7277921 0.09815778

fc1.bias f4 [3]
00000000: 5db7 85bf 4d01 ab3f f531 e73e
-1.0446583 1.3359772 0.45155302

fc2.weight f4 [2, 3]
00000000: a098 c7be e6fd 91bd 3501 273f a84d dd3d
00000010: cc94 363f a79f de3d
-0.3898363 -0.071285054 0.65236217 0.108058274 0.71320796 0.10870295

fc2.bias f4 [2]
00000000: f91f 0abf 3ebb a9bf
-0.53955036 -1.3260267
