models/best_ga_model.pth (torch, 2752 bytes, 8 tensors)

fc1.weight f4 [3, 24]
-0.7792542 0.2513967 -0.47736147 0.46231672 -0.5257143 1.1893572 0.53955245 -0.033632986
-0.37843132 0.66233027 -0.009885289 0.06097741 -0.8244395 0.75508976 -1.1320417 0.23599555
0.41290984 -0.6627035 0.01854834 0.037873626 0.92911977 -0.89132154 1.663442 -0.74550444
-0.7765708 1.058884 0.7862918 0.23147108 -0.18252754 -0.3779673 -0.13033275 0.2843346
-1.6012324 -0.0027743615 1.4152731 0.22446549 0.85854614 0.122682884 -0.7929208 -0.84230083
-0.20101243 0.2426947 0.16792588 -1.2522011 1.5921949 0.5257258 1.11035 0.14327016
0.17288543 0.76557606 -0.50922847 0.13640802 -0.022368014 -0.29604575 0.15207186 -0.28072768
-0.107878275 -0.40493655 0.8689178 -1.2407702 0.1882872 1.010589 -0.9190346 0.95351654
-0.6273959 0.092863575 -1.3807117 0.9503398 -0.45407444 -0.18338408 -0.54077154 0.38007817
00000000: 347d 47bf 11b7 803e b968 f4be c7b4 ec3e
00000010: 3695 06bf db3c 983f 1c20 0a3f bec2 09bd
00000020: c0c1 c1be 7a8e 293f e8f5 21bc 73c3 793d
00000030: 780e 53bf 904d 413f bee6 90bf d1a8 713e
00000040: eb68 d33e f0a6 29bf b0f2 973c 6021 1b3d
00000050: cbda 6d3f a62d 64bf abeb d43f 61d9 3ebf
00000060: 58cd 46bf 8389 873f 6b4a 493f c106 6d3e
00000070: 80e8 3abe ee84 c1be f375 05be 4e94 913e
00000080: 2ff5 ccbf 10d2 35bb ab27 b53f 48da 653e
00000090: aec9 5b3f 2a41 fb3d dcfc 4abf 07a1 57bf
000000a0: 34d6 4dbe f684 783e c3f4 2b3e 2048 a0bf
000000b0: 0bcd cb3f f795 063f f31f 8e3f 6ab5 123e
000000c0: e108 313e cbfc 433f cc5c 02bf 8bae 0b3e
000000d0: 203d b7bc 4f93 97be bab8 1b3e 8abb 8fbe
000000e0: 49ef dcbd d853 cfbe 6671 5e3f 8fd1 9ebf
000000f0: 5cce 403e fb5a 813f da45 6bbf a919 743f
00000100: 059d 20bf 422f be3d 29bb b0bf 7849 733f
00000110: 727c e8be 09c9 3bbe 0170 0abf 9b99 c23e

fc1.bias f4 [3]
2.9938285 2.6861334 3.3402321
00000000: e39a 3f40 9ce9 2b40 5dc6 5540

fc2.weight f4 [2, 3]
0.23703475 0.29025438 -0.106766336 -0.24823666 0.11641538 -0.32853502
00000000: 3db9 723e 399c 943e 4fa8 dabd c031 7ebe
00000010: 306b ee3d be35 a8be

fc2.bias f4 [2]
-1.1716206 1.5477235
00000000: aaf7 95bf ce1b c63f

network.0.weight f4 [3, 24]
-0.7792542 0.2513967 -0.47736147 0.46231672 -0.5257143 1.1893572 0.53955245 -0.033632986
-0.37843132 0.66233027 -0.009885289 0.06097741 -0.8244395 0.75508976 -1.1320417 0.23599555
0.41290984 -0.6627035 0.01854834 0.037873626 0.92911977 -0.89132154 1.663442 -0.74550444
-0.7765708 1.058884 0.7862918 0.23147108 -0.18252754 -0.3779673 -0.13033275 0.2843346
-1.6012324 -0.0027743615 1.4152731 0.22446549 0.85854614 0.122682884 -0.7929208 -0.84230083
-0.20101243 0.2426947 0.16792588 -1.2522011 1.5921949 0.5257258 1.11035 0.14327016
0.17288543 0.76557606 -0.50922847 0.13640802 -0.022368014 -0.29604575 0.15207186 -0.28072768
-0.107878275 -0.40493655 0.8689178 -1.2407702 0.1882872 1.010589 -0.9190346 0.95351654
-0.6273959 0.092863575 -1.3807117 0.9503398 -0.45407444 -0.18338408 -0.54077154 0.38007817
00000000: 347d 47bf 11b7 803e b968 f4be c7b4 ec3e
00000010: 3695 06bf db3c 983f 1c20 0a3f bec2 09bd
00000020: c0c1 c1be 7a8e 293f e8f5 21bc 73c3 793d
00000030: 780e 53bf 904d 413f bee6 90bf d1a8 713e
00000040: eb68 d33e f0a6 29bf b0f2 973c 6021 1b3d
00000050: cbda 6d3f a62d 64bf abeb d43f 61d9 3ebf
00000060: 58cd 46bf 8389 873f 6b4a 493f c106 6d3e
00000070: 80e8 3abe ee84 c1be f375 05be 4e94 913e
00000080: 2ff5 ccbf 10d2 35bb ab27 b53f 48da 653e
00000090: aec9 5b3f 2a41 fb3d dcfc 4abf 07a1 57bf
000000a0: 34d6 4dbe f684 783e c3f4 2b3e 2048 a0bf
000000b0: 0bcd cb3f f795 063f f31f 8e3f 6ab5 123e
000000c0: e108 313e cbfc 433f cc5c 02bf 8bae 0b3e
000000d0: 203d b7bc 4f93 97be bab8 1b3e 8abb 8fbe
000000e0: 49ef dcbd d853 cfbe 6671 5e3f 8fd1 9ebf
000000f0: 5cce 403e fb5a 813f da45 6bbf a919 743f
00000100: 059d 20bf 422f be3d 29bb b0bf 7849 733f
00000110: 727c e8be 09c9 3bbe 0170 0abf 9b99 c23e

network.0.bias f4 [3]
2.9938285 2.6861334 3.3402321
00000000: e39a 3f40 9ce9 2b40 5dc6 5540

network.2.weight f4 [2, 3]
0.23703475 0.29025438 -0.106766336 -0.24823666 0.11641538 -0.32853502
00000000: 3db9 723e 399c 943e 4fa8 dabd c031 7ebe
00000010: 306b ee3d be35 a8be

network.2.bias f4 [2]
-1.1716206 1.5477235
00000000: aaf7 95bf ce1b c63f
